model/19_64_60_generator_model.pt (torch, 821859 bytes, 14 tensors)

lstm.weight_ih_l0 f4 [400, 5]
00000000: c006 05bd 8733 e23d 363b dcbb 3312 97bc
00000010: fb3e a13d d525 6ebb 5770 473c 50cb 4a3e
00000020: 76a2 f03d c6d8 e63d 3f45 a7bd 258a afbc
00000030: 3f2f 903d 2f57 4b3d c679 07be 9198 74be
00000040: 7c42 2abe e5e7 a8be f0b9 4abe a9e2 863c
00000050: ec69 0cbf b0bf ecbe dfd4 d1be 537c cdbe
00000060: c2d6 80bc a98e 683e d323 f23d 11ee 8d3e
00000070: eb0f 0e3e 661c 973d 9ce3 07bd a833 40bc
00000080: 2f36 4b3d 7027 b4bd 0eb1 bdbe 0aae 77be
00000090: 5b30 9bbe d224 8cbe 1a61 7fbe 00f5 9e3e
000000a0: 24de 02bf b735 c8be d175 fcbe 045f bfbe
000000b0: b9e8 163e 6389 c4be d0cd b7be 184a c9be
000000c0: d109 a7be 4bea 013f b653 933d 6dde dc3d
000000d0: 50a1 513e de44 2e3e 3795 b4b9 b250 bf3e
000000e0: 994a dd3e 00a6 e13e 6f91 b93e 2fd7 e43d
000000f0: cfda 353e 7c89 453e 353e 643e d683 913e
00000100: 0e61 2f3f da6a 973d b322 f63d 269a e8bc
00000110: 6eed 673d 7bb8 1f3d b12a a8be 2e00 1fbe
00000120: 7cda 23be f249 01be 177b 113f 2aeb 553e
00000130: ea2d 843e 7523 a53e 5d9b b13e 2178 3b3e
00000140: 870e 263e cde5 0f3e f835 9f3d 1187 fd3d
00000150: 0728 aebe b71b 19be 90a8 47be 47fd 8fbe
00000160: 5263 e8bd b275 4d3e 7d17 2fbe 2325 5abe
00000170: 0665 c7bd c277 23bd fdf4 02be d2e2 eabe
00000180: 0c1d e7be 89ec a8be 5b43 bbbe 7e04 733e
00000190: 0b59 d3be c86e dfbe 0f8d fabe d0fc e2be
000001a0: 79a7 b83e 8c19 563d 76b5 1ebd 29c0 ca3b
000001b0: ddd8 ca39 30d1 70be 5c1e 27bf 50a7 2cbf
000001c0: 3e84 2dbf ec89 1fbf 65a0 763f 40bc d8be
000001d0: c22f cbbe 61da e7be 5247 e3be 0135 b9bd
000001e0: ab5e 9dbe dd80 26be 7a58 02be c557 59be
000001f0: 30d7 a8be 21ba 783e ef8e 8f3e 4e04 863e
00000200: f97e 353e c46c d2be 028b b5be c07c 3ebe
00000210: 70e4 b2be aaa5 adbe 88a1 243e 3e1b 2abd
00000220: f0fc 0ebe 5344 0bbc 38a1 ddbd 19e8 2dbe
00000230: 9e69 44be e130 13be d08b 16be d0fa f3bd
00000240: e7e3 d43e dd74 7fbe f967 4cbe 196b 5cbe
00000250: c7aa 8cbe 0976 833f d713 bfbe 3daa b9be
00000260: 656b 8dbe fcd5 94be 21b8 fcbc a855 0c3c
00000270: 8927 85bd d4da e03d 4a19 d9bc 4759 ed3c
00000280: eb28 57be 2b27 2dbe 4d9a 2dbe bf02 47be
00000290: 548f 393f f76a cbbe 46cd acbe ee16 d4be
000002a0: f6ef afbe 6670 2c3d 1131 dc3e a51e 843e
000002b0: b678 e53e 3526 f03e 93e4 4d3f 8325 823d
000002c0: 2e23 29bc 7f67 aa3c eb7c da3d 43c6 303e
000002d0: 02dc 363d c886 a53d 7cab 423e 8021 cc3d
000002e0: 7b27 3d3e e403 23be 4146 8abe 83fa 77be
000002f0: 14c8 33be 0be1 1e3e 2bc1 8fbe e7ce a6be
00000300: 14dc a7be e37c 15be c34d 163e 8132 a03e
00000310: 8b21 c83e 5230 bc3e 32f6 c13e 51eb 0abf
00000320: f8da 0cbf c0c8 c6be ae30 efbe c2e2 e3be
00000330: c563 e63e edba 47be f88f 19be 6cca 37be
00000340: 2919 bfbd 313e 823e 4f70 c6bd e9be ddbd
00000350: 558c f4bd 1fe8 8fbc 78ef 093f acb8 a9be
00000360: cebd 2fbe a2be f0bd 7e7d 41be dc1b 033d
00000370: f918 93be dd5d 9abe a4cc 23be 19c0 a3be
00000380: c2d2 063f 458f 253c 0763 063e cc3c e13d
00000390: d281 373e bb62 4e3f 9e46 a03e 6663 be3e
000003a0: 4939 f53e d298 f73e 9726 c83a 1f32 c0bd
000003b0: 92a4 d0bc 967c 87bd 1ef7 1ebe 5d2b 163f
000003c0: 8ac7 15be 4d4e 1dbe db4a d5bd 3d83 43bd
000003d0: a6dd e43e e834 f03d 3bd9 b03d 1a75 1d3e
000003e0: 2d1b d33d 0d7a c33e f564 3ebe 1ae9 76be
000003f0: c593 6dbe 32ba 81be b29b 16be 23e8 ff3d
-0.03247714 0.11044984 -0.0067209257 -0.018441295 0.07873341 -0.0036338468 0.01217278 0.1980412
0.11749737 0.11271815 -0.081675045 -0.021428177 0.070402615 0.04964369 -0.13230047 -0.23886324
-0.16626924 -0.3298942 -0.19797492 0.016465502 -0.54849124 -0.46239996 -0.4098272 -0.40133914
-0.015727405 0.2271067 0.11823239 0.27720693 0.1387326 0.073784634 -0.03317605 -0.011731066
0.04961222 -0.087965846 -0.37049145 -0.24187484 -0.3031033 -0.27371842 -0.24939385 0.31046295
-0.5112021 -0.3910348 -0.49308637 -0.3737718 0.14737214 -0.38386068 -0.3589921 -0.39314342
-0.32624677 0.5074813 0.07193701 0.10784612 0.20471692 0.17018458 -0.0003444345 0.37366253
0.43220976 0.4407196 0.3624377 0.111738555 0.1775925 0.19290727 0.22289355 0.28420895
0.6850747 0.07393427 0.12018337 -0.028393816 0.056622915 0.038994294 -0.3284507 -0.15527412
-0.16001314 -0.12625864 0.56828445 0.20890489 0.2581628 0.32253614 0.34688845 0.18307544
0.16216479 0.14052506 0.077739656 0.123792775 -0.34014913 -0.14951979 -0.19497895 -0.28122923
-0.11347069 0.20064428 -0.17098804 -0.21303229 -0.097360656 -0.03990913 -0.12788768 -0.45876175
-0.45139349 -0.32992962 -0.36574826 0.23732182 -0.41278872 -0.43639207 -0.48935744 -0.44333506
0.36065271 0.052270457 -0.038747273 0.006187458 0.00038690018 -0.23517299 -0.652807 -0.674428
-0.6777991 -0.6231983 0.9633849 -0.42331123 -0.39684874 -0.45283797 -0.4439035 -0.09043313
-0.30736288 -0.16260095 -0.12729064 -0.21224888 -0.32976675 0.24289753 0.28038737 0.2617516
0.17724217 -0.41098607 -0.35457617 -0.18602276 -0.3493991 -0.33915454 0.16077244 -0.041529886
-0.13963675 -0.0085001765 -0.10821766 -0.1698307 -0.19180915 -0.14374115 -0.14701772 -0.11913073
0.41580126 -0.24946924 -0.19961537 -0.2152523 -0.27474043 1.0270396 -0.37319824 -0.36262694
-0.27620998 -0.29069507 -0.030849518 0.008565344 -0.06501681 0.10979238 -0.026501317 0.028973235
-0.21011703 -0.16909473 -0.16953392 -0.19434641 0.72484326 -0.39730045 -0.3375036 -0.41423744
-0.34362763 0.04209938 0.43006185 0.2580463 0.44818658 0.4690415 0.804269 0.06354811
-0.010323329 0.020801304 0.106683575 0.17263131 0.04464341 0.08082348 0.19010729 0.09967327
0.18472092 -0.15919453 -0.27006724 -0.24216656 -0.17556792 0.15515535 -0.28077063 -0.3257973
-0.32785094 -0.14598422 0.14678101 0.3128853 0.3908809 0.36755615 0.37883145 -0.54265314
-0.5502162 -0.38825035 -0.46716827 -0.4450894 0.44997993 -0.195049 -0.14996326 -0.17948312
-0.09330971 0.25438073 -0.0968939 -0.10827429 -0.11940829 -0.017566739 0.53881025 -0.33148706
-0.17162248 -0.1175511 -0.18895528 0.03200899 -0.2872999 -0.30149737 -0.15996033 -0.31982496
0.5266534 0.010104959 0.13123713 0.10997924 0.17920616 0.806194 0.31303877 0.3718521
0.47895268 0.4835878 0.001527029 -0.0938456 -0.025469098 -0.0661556 -0.15523955 0.5865992
-0.146269 -0.153619 -0.10414668 -0.04773258 0.44700354 0.11728841 0.086351834 0.15376702
0.10307918 0.38179055 -0.185932 -0.24112359 -0.23200901 -0.25337368 -0.1470783 0.124954484

lstm.weight_hh_l0 f4 [400, 100]
00000000: 4ef5 803c 886f 443e ea49 0f3e adfe c13e
00000010: 544b 4e3e 6c2f 083e 8842 8fbd bfb9 6dbe
00000020: 4d7e 9d3b 571c 8e3d 5065 f4bd 2d9b 5e3d
00000030: fc1a d8bc 594a 18be 10cd e23d f7cf c1bb
00000040: b6a8 e93d 24e2 fe3d 2a4c 3e3d 70a5 be3d
00000050: 03f9 a13d d24d 16bd 8885 67bd b0e1 973d
00000060: c864 003e 9442 0d3d c131 0d3e 10fd 9dbe
00000070: c9b5 8bbd 6961 82bc ed27 93be 0dfe cebd
00000080: a9fe e5bd 57f4 833d 8386 c9bd 0ed3 09bd
00000090: cea7 803d 0a11 6fbe 8371 52bd 9922 3abd
000000a0: ec7a 9d3b bbcf c9bd 9605 4a3d e627 f9bc
000000b0: 4020 0ebd d68e 313d 9f1c 39be d2a0 68bd
000000c0: 8823 dcbd 9940 0c3e 99db 94bd d44b 0f3f
000000d0: 8593 1ebe 47c3 143e 1273 74be 73bb 51be
000000e0: 2d2d 0ebc 5d88 a23d f2c6 fbbd a877 2fbd
000000f0: dd4b d7be 7436 d3bc a55b c53d 36a7 b6bd
00000100: 3893 05bd 9f7f 78bd e97a b03c af31 fcbe
00000110: ab5a 06be a144 71bc 91c3 2c39 fbe4 b93e
00000120: ebc0 88bd 3ea4 1b3e aa57 8a3d e0d1 dc3c
00000130: fab7 79bd c591 0cbf d9ed 45bc 11ca e43e
00000140: 35f9 8e3c aa75 0b3d 8d56 a6bd 2947 7fbe
00000150: 4bf5 103d aa5d 823d 55d2 1fbe 7e4a d43c
00000160: 20aa 3e3d 67c6 65bd 34ee 0c3b 68e2 e6bd
00000170: b83a c4bd 2f18 89bd b129 7d3d 262b 003e
00000180: 27d0 c1bc 6f65 323e 54a3 43bc 7e6a a9bc
00000190: b61f 82be 04a8 aa3d 6914 98bd 25fa 7d3e
000001a0: db81 3fbd cf7b a53c 1216 923b c17c 1dbe
000001b0: 6c6a 213d 61a0 cabb ab0f 1abe fdea cbbc
000001c0: 4d2a 19be bf12 053c c297 7a3e 7af4 233d
000001d0: 94cd 103d 8d60 643c ceff 1f3e 7db5 733e
000001e0: b27b 113d a76e 0abe a61b 17be 1c7c c8bd
000001f0: 9355 e83d 3bd2 4e3e 9b7f b5bc 4564 1bbe
00000200: b414 0d3d 74f6 793d 947a b6be 9b05 f2bd
00000210: 7ac7 75be 9e39 6cbd 4f39 06be b34f 45bd
00000220: 2cc4 34bc 0a5c 7abe cb91 693e 9e5a 67bd
00000230: 3918 c43c 2614 12be b12f 6cbc 27a3 c8bc
00000240: 1dae 22be 0207 e23d c742 773d 4957 0dbe
00000250: 1fdd 86bd b07a 023d 9771 203d 43c5 e53e
00000260: 2812 53be c360 a53d cf10 94bd 4c2d ecbd
00000270: 1ae6 3cbc eef2 183d 3034 5ebe 79a4 f9bd
00000280: ef3b 9cbe d11a b6bd 0288 67be a841 2b3d
00000290: efd4 53bd 7b5f debd f2e5 8fbd 2d4c 87be
000002a0: 7621 43be 4a67 443e 592c c3bd c32e 8a3e
000002b0: affa b53d fcd4 013d ad82 5b3e 0e48 b2bd
000002c0: c828 2ebe 65f5 78be 0235 11be d235 2c3e
000002d0: fb48 6abe e2f6 c8bc 9034 05bc 1e51 8abc
000002e0: fb21 49be 1a78 af3a f481 2bbc e144 cb3b
000002f0: b48f c4bd b70b eebd 25b6 ff3d 6bac dcbd
00000300: 7d02 fa3d 22d1 aa3d f3bd 0cbe 28eb a23b
00000310: 1861 55bd 6b43 39bc 3805 793d a14a dcbd
00000320: a630 683d 8abe 073e c75f 423e d0aa 0f3e
00000330: c550 a63e 6445 35bd ffbe cbbe 723f ccbd
00000340: 338c dd3d 12b9 5fbd dd70 dd3d 7987 91bd
00000350: 373d d7bd 8fd9 3fbe d1d9 babb 2561 aebe
00000360: 9e55 ed3a 2d55 ab3d dac6 cb3d 9374 d8bd
00000370: 6270 003d f593 9fbd 9a66 013e 8c09 bb3d
00000380: 107c b03d c40c 2dbb d08b d73d 4622 60be
00000390: 958b 11bd 86fd 6d3c ab6a d2bd e716 80be
000003a0: ecd3 d73d 7461 0dbe 9329 38be 0af7 f93d
000003b0: 1477 7f3e 4002 dcbe 283c dfbd cc6f 8d3d
000003c0: 045c d6bc 10b6 68be 0828 efbb 08c4 bebd
000003d0: 8d79 2e3e 8050 eb3d 4f33 353e 3b91 99bd
000003e0: b349 8f3d be79 9b3d ec41 b53d ee47 843e
000003f0: b6be 093e 3692 3c3e 18a9 73be 7c66 613c
0.01574197 0.19183171 0.1399304 0.37889615 0.20145923 0.1329934 -0.06995112 -0.23215388
0.004806316 0.06938999 -0.11933386 0.054347206 -0.026380055 -0.14872111 0.11074269 -0.005914684
0.11409132 0.12445477 0.046459354 0.093088984 0.07908823 -0.03669531 -0.05652383 0.07416093
0.12538445 0.034487322 0.13788511 -0.30857134 -0.06821782 -0.01591559 -0.28741398 -0.1010705
-0.11230213 0.064430885 -0.09840109 -0.033648543 0.06282006 -0.23346344 -0.051377784 -0.04544315
0.004805913 -0.098540746 0.049321733 -0.030414533 -0.034698725 0.04334911 -0.18077324 -0.056793995
-0.107489645 0.13696517 -0.072684474 0.5597508 -0.15485962 0.14527617 -0.23872021 -0.20481662
-0.008677763 0.079361655 -0.12293805 -0.042838722 -0.42050067 -0.025782801 0.096366204 -0.08918612
-0.032611102 -0.060668584 0.021542983 -0.49256656 -0.13120525 -0.014725835 0.00016476052 0.3630751
-0.06677421 0.15199372 0.06755002 0.026955545 -0.06096647 -0.54909927 -0.012080633 0.44685414
0.017452816 0.03404776 -0.08121977 -0.24929489 0.03539018 0.06365521 -0.15607579 0.025914427
0.046548963 -0.056097414 0.0021504285 -0.11273652 -0.09581512 -0.06694066 0.06180734 0.1251646
-0.023658825 0.17421506 -0.011940796 -0.020680662 -0.2541482 0.08332828 -0.07425768 0.24802454
-0.0467547 0.020200638 0.0044581974 -0.15379621 0.039408132 -0.0061836694 -0.1504504 -0.024892325
-0.14957543 0.008122145 0.24471954 0.040028073 0.035352305 0.013939035 0.15624925 0.23799701
0.035518356 -0.13518773 -0.14756641 -0.09789297 0.11344447 0.20197384 -0.022155574 -0.15174969
0.034443572 0.06102605 -0.35640395 -0.118174754 -0.24001876 -0.057672136 -0.13107799 -0.04817171
-0.011033099 -0.24449173 0.22809522 -0.056482904 0.023937332 -0.14265499 -0.014415667 -0.02449186
-0.15886731 0.11036493 0.06036642 -0.13802828 -0.06585144 0.031855285 0.039170828 0.4487706
-0.20612395 0.080750965 -0.072297685 -0.11532077 -0.01152947 0.03734105 -0.21699595 -0.12189574
-0.30514476 -0.088918336 -0.22610477 0.04181066 -0.05171674 -0.10858055 -0.070262805 -0.26425305
-0.19055733 0.19180027 -0.09529943 0.269888 0.08885705 0.03169726 0.21436568 -0.087051496
-0.17007744 -0.2431236 -0.14180377 0.16817406 -0.22879402 -0.024531785 -0.008130208 -0.016884383
-0.19641869 0.0013387233 -0.010467995 0.0062032794 -0.09597722 -0.11623328 0.12485913 -0.107750736
0.12207506 0.0834067 -0.13744335 0.0049718805 -0.05209455 -0.011307578 0.060795993 -0.10756422
0.05668702 0.13256279 0.18981849 0.14030004 0.32483497 -0.04425563 -0.39794156 -0.09973039
0.108177565 -0.054619856 0.108125426 -0.071059175 -0.10509723 -0.18735336 -0.0057022353 -0.3405849
0.0018107181 0.08365855 0.09950037 -0.1056911 0.031357177 -0.077918924 0.12636796 0.0913268
0.08617413 -0.0026405314 0.10524714 -0.21888074 -0.035533506 0.014525777 -0.102742516 -0.25017473
0.10538468 -0.13806707 -0.1798461 0.12205322 0.24947768 -0.42970467 -0.10900146 0.06906089
-0.026166923 -0.22725701 -0.0072984733 -0.09314734 0.17038555 0.114899635 0.17695354 -0.07498404
0.06996479 0.0759158 0.08850464 0.25836128 0.13451657 0.1841515 -0.23794973 0.013757344

lstm.bias_ih_l0 f4 [400]
00000000: 5515 b73d 2458 8d3d d854 f13c 5e8e 2a3d
00000010: 7c8c 03be 3c1d 403e 3c9a e1bd 992e afbe
00000020: 9890 fb3c 5d8a 53bd 548d 3d3d 338e 563e
00000030: c293 143e 7d01 bfbd b09e ca3d d04a c83e
00000040: aa2f 633c f704 c33b a032 0c3d 0e13 20be
00000050: e654 8c3e ac4c 3abe f36c 8fbe 5187 12be
00000060: ddbb 42be 3b65 e43c 6d1c abbe c1b5 d23d
00000070: 216e 82bd 9518 61be 9eb8 9d3d 721d af3c
00000080: d202 073d 2959 913e 6646 743e 9a1f 723c
00000090: 6f09 9c3d 497c 0a3d 55f2 abbd d4ed 8d3e
000000a0: e93c b93d 158c 5fbd 8e49 043e 1109 d83e
000000b0: cba4 66bd b5e9 843e c458 353e 65e7 aa3d
000000c0: 1156 2bbe 5328 fb3b 7aa8 76be e09c bebd
000000d0: 3a58 43bd de78 2b3d 82fb 89bc ec2e a2bd
000000e0: c39a 5a3c aea6 5dbe 661e e83c 369c 5e3e
000000f0: e85f db3d 6302 dbbd 0e7c 133d 51d6 813e
00000100: 8ec4 cabc e6d2 033e 83aa ef3d 9580 3cbd
00000110: 36cf 0abb 4c3f 053e 21f7 ac39 3c79 653d
00000120: 6142 1bbe 04e0 6cbb 4f15 bd3d e9d0 9b3e
00000130: 3630 f53c f94b bebd 4d60 273e 49e0 64be
00000140: 8b23 e9bd c1a5 50bd a9b8 95bd cdc0 0c3d
00000150: 70a3 bbbd 0d48 34be 0096 ad3d 1dbc 5abe
00000160: 7270 2bbe a086 f7bd 4d71 c13e c153 0dbd
00000170: a70c 2abe edd5 aa3d 9fae eabd a9a6 19be
00000180: bf05 b4bc bab0 bb3d b8e2 e83c 203c 813d
00000190: b261 143e eb7c 58bb 934b 903e 0cd0 06be
000001a0: ad4d 1c3b 9013 8ebe 5e78 e33d f913 66be
000001b0: c5ef 1abe fcb3 b8bd 3a42 143e aafc 7cbe
000001c0: e8b1 77be 86d8 03be 1f7f a6be d31c 22bc
000001d0: cea5 5ebd 0bc8 e9bd d7f9 bfbd 564e 1fbe
000001e0: 957b bfbd 7cd3 13be d933 b1bd 5219 65be
000001f0: 7ba8 87bb 464d 1b3e 0919 babe fc00 03bd
00000200: 67b4 07bd 29e9 2ebe 31a7 7dbb e6d7 41be
00000210: a2dd cf3d 70c0 83bd 0fde 6bbe b6fb a4bd
00000220: c060 aebd 19ec 9f3d c830 8ebc 920a 29bd
00000230: 2235 6cbe 3e6d c03c 0c24 18be a75f e1bd
00000240: 598c b6bd fd53 94be 4497 cabe 278c 7abd
00000250: 4b6d 66bd 997a a7bd 381f 11be 8b95 c53c
00000260: a4f6 97bd aa05 1b3d 5f8b d83d e0c7 7bbe
00000270: b8c5 dc3c 983d ce3d c2c6 67bd 5547 4fbe
00000280: 34e3 f2bc aca1 0bbe 3534 563e 859f cdbd
00000290: 4a9f c6bb ba7d fd3d df5d 44be 5b90 74bc
000002a0: 0e71 7cbe 984d 703e 347f 8fbd 6675 b3ba
000002b0: 5e07 afbe b24a c5bd 2ae8 90bd 5db8 7bbe
000002c0: e403 38bd 83e6 8a3c 37ca aebe 0c24 10bd
000002d0: e6ed ac3b 97fc 3fbe 2858 b9be 9319 5ebe
000002e0: 4278 dd3d b34d edba c1f8 3f3e 1076 06bd
000002f0: 21fd 863d 21f7 98be 5f90 843b b2d1 9cbe
00000300: 5258 dabc 3d23 1bbd bce2 49be c33c bebc
00000310: d282 213e d3d0 063e 22c9 8abe c7a9 2b3b
00000320: bf26 053e 692c e93d 3bda 613d ee6d 203e
00000330: 6efb a63d b564 bfbd fe42 19be c1f6 d23c
00000340: 3e08 acbd 0c08 203d fdf5 553e 1e2c d33c
00000350: 85df 4a3e 765e ac3d 5f28 823c 3e12 ce3d
00000360: e014 e7bd 6350 8abd 1f88 893d 4356 a03b
00000370: b6b8 a4bd 3994 2b3e 80e3 2cbc 8501 a5bd
00000380: e843 fcbb 4b73 37be 7f26 64bd 74ef 82be
00000390: 7e2b 7e3d cc16 fbbb fadc 17be 7891 be3d
000003a0: e33a b5bd 8daa 803d e0bb 8c3d 6133 573d
000003b0: 48a6 2cbe 48b7 bebd 78c8 213d 2ff0 b2be
000003c0: ed03 69bd 744d 1abc 2ef6 0d3d 48dd 0e3e
000003d0: 6a62 edbd d783 f1bd 474b 10be 1315 98bc
000003e0: d7cb 26be 7edb 633e 777d d33d 3385 ccbd
000003f0: 3e90 08bc 1d14 9f3d 3291 17be e97c fcbb
0.08939616 0.06901577 0.029459402 0.04163968 -0.1284656 0.18761152 -0.11015746 -0.3421524
0.030708596 -0.051645625 0.04627736 0.20952682 0.1450949 -0.09326456 0.098935485 0.39119577
0.0138663445 0.0059515196 0.034227967 -0.15632269 0.27408522 -0.1819331 -0.2801281 -0.14309432
-0.19016977 0.027880302 -0.33420125 0.10288573 -0.06368662 -0.21982034 0.077012286 0.021376345
0.032961674 0.28388336 0.2385498 0.014778042 0.07618987 0.033809934 -0.083958305 0.2772051
0.09044821 -0.054576952 0.12918684 0.42194417 -0.056309503 0.25959554 0.17709643 0.08344916
-0.1673205 0.007664719 -0.24087706 -0.09307265 -0.04769156 0.041863315 -0.016843561 -0.07919106
0.013342562 -0.21645615 0.028334808 0.21739277 0.10711652 -0.106938146 0.03600698 0.25358823
-0.024751928 0.1287342 0.117024444 -0.046021063 -0.0021180636 0.13012427 0.00032990522 0.05602382
-0.1516204 -0.0036144266 0.0923258 0.30432823 0.029930215 -0.092918344 0.1634533 -0.22351183
-0.113837324 -0.050939325 -0.07310612 0.034363557 -0.091620326 -0.1760561 0.08475876 -0.21360822
-0.16742113 -0.120862246 0.37781754 -0.034503702 -0.16606389 0.08341584 -0.114590876 -0.15004982
-0.021975396 0.09164567 0.02842842 0.06310296 0.14490393 -0.0033033441 0.2818266 -0.13165301
0.002385001 -0.277493 0.111069426 -0.22468556 -0.15130527 -0.09018704 0.14478388 -0.24705759
-0.2418896 -0.12875566 -0.3251886 -0.009894568 -0.054357342 -0.11415108 -0.09373825 -0.15557227
-0.09349743 -0.14436144 -0.08652467 -0.2237294 -0.0041399575 0.15166196 -0.36347225 -0.03198336
-0.03313103 -0.17081131 -0.003870439 -0.18930015 0.10149695 -0.06433189 -0.23033927 -0.080558226
-0.08514547 0.07808704 -0.017357245 -0.041269846 -0.23067144 0.02348959 -0.14857501 -0.11004572
-0.08913488 -0.28970328 -0.39568532 -0.061168816 -0.056256574 -0.081776805 -0.14172065 0.02411916
-0.0742009 0.0378472 0.10573458 -0.24587965 0.026949748 0.10070342 -0.056586035 -0.20242055
-0.029649355 -0.13635892 0.20918353 -0.100401916 -0.006061469 0.12377496 -0.19176434 -0.014926995
-0.24652502 0.234671 -0.07006684 -0.0013691604 -0.34185308 -0.096333876 -0.07075532 -0.24582048
-0.044925585 0.01695562 -0.34138653 -0.035190627 0.005277383 -0.18748699 -0.3620007 -0.21689443
0.10813953 -0.0018104821 0.18747236 -0.032827437 0.06591249 -0.29876044 0.0040455307 -0.30628735
-0.026653443 -0.037875403 -0.19715399 -0.023222333 0.1577256 0.13165598 -0.27106577 0.0026193724
0.13003062 0.11385424 0.05513976 0.15666935 0.08153425 -0.0934538 -0.14966962 0.025752427
-0.084000096 0.039070174 0.20894618 0.025777873 0.19811828 0.084164545 0.015888391 0.10062073
-0.112832785 -0.06753614 0.06715416 0.0048930957 -0.08043043 0.16755761 -0.010552287 -0.080569305
-0.0076985247 -0.17915075 -0.055700775 -0.25573313 0.062053196 -0.0076626297 -0.1483039 0.0930509
-0.088491224 0.0628253 0.06871772 0.052539233 -0.16860306 -0.09312302 0.039497823 -0.3494887
-0.05688851 -0.00941788 0.034658603 0.139516 -0.115910366 -0.117927246 -0.14091216 -0.018564736
-0.16288696 0.22251698 0.10326665 -0.09986343 -0.008335171 0.07767508 -0.14801481 -0.00770532

lstm.bias_hh_l0 f4 [400]
00000000: 817c 003e fc29 a53c 9b3d 093d 2733 5abd
00000010: a40e 62be 92b1 073e 50a2 623b c5c4 7dbe
00000020: 4ea7 333e 490f 633d 6831 513d 585d e43d
00000030: 7885 713e 59ae 9fb7 9d58 0f3e 0a5c 013f
00000040: 3ff8 63bd 3a80 c4bd 2a8e 0c3e 0fc0 a7bd
00000050: 0a65 703e a4f7 8dbd 7c52 86be 4a8a cbbd
00000060: 669e 19be 2b18 7c3d 577c b5be ab67 803d
00000070: 068e 19bc ec0d 17be f784 3fba 93ff eb3c
00000080: a12b 1d3d 6e8e 883e f725 933d a0f2 e1bd
00000090: a915 da3d ac7e 253d 260c 32bd 8d7c c53e
000000a0: 7b4c 913d f27f dabd 9967 3bbc ab37 cd3e
000000b0: 4698 10be a7f6 8d3e e6f8 373e 1573 1f3e
000000c0: b77d 2abe b19d 053e 8e03 04be befb a4bc
000000d0: b79b aa3d d991 7d3d 31f4 953b 4bf0 3bbe
000000e0: 2780 92bd 9eb6 32be 50b0 093d 7760 573e
000000f0: ad8e 7a3d 2941 2cba 99e0 883d 5f88 423e
00000100: fc02 e1bc 558b 3f3c 27cc 55bc 225c 53bd
00000110: 59bd 303d 10fd 403d 67ff 363d 335f a13d
00000120: d3e6 52be 4fcd f0bd 38dd 153d efa7 b83e
00000130: e63a 5b3d 81d1 9bbd c2c8 343e f31e 62be
00000140: 2181 02be 49a7 28be 7663 30bd 3b33 593e
00000150: f605 8abd 992c ebbd b86e 77bd 588b ecbd
00000160: 596e c1bd 4492 e9bd a62e f93e 1a24 433d
00000170: 0315 24bd 53d9 8d3a 3dd4 dbbd dd05 3dbe
00000180: edf8 0ebd 65ff 883c a587 643c 46ea a93d
00000190: c92d 283e 6061 023e 6384 b73e f3bc 49bd
000001a0: e9cd 84bd ee95 31be 24f2 5b3d f37e 98be
000001b0: ce8a 02be 08e1 dbbd e3b6 1d3e 5ee8 9bbe
000001c0: ea42 3fbe 47b9 09be 2b6c 58be 7f1e a83b
000001d0: d633 2fbd aedb 03be b6bb 0dbe cab9 1cbe
000001e0: 5dec 1abe f24b 893b a16e 99bd 8d7b 00be
000001f0: ec75 5dbd eb5f 253e f71d 7ebe 1a85 17bc
00000200: 661c 42bd 5776 24be 1a06 b23d a1bf 0dbe
00000210: e95e 43bc 8ae6 8d3d ec1d 1abe ee1d b53b
00000220: 35b7 c9bd 5875 be3d 8cb9 bbbc fd89 0fbe
00000230: e8cd 03be 9bc8 d1bd 1f4a 7fbe d3e5 4e3d
00000240: a34e debd ced6 cebd a59f cbbe 0f57 29be
00000250: 5402 f9bd fdaa 0ebe d116 5fbe bee9 a53d
00000260: 1a87 193d 0049 7ebd 0f89 80bd c658 83be
00000270: b3c3 bcbc 98af e43d 6eaa 863d 3ac3 1dbe
00000280: 1e65 e03d 38f9 78be de0d 993e 3437 a3bd
00000290: 50db 29be 61d7 303d a85c 18be fa4e 56bb
000002a0: 209f 86be 8db1 723e 4151 2ebe 9a70 233e
000002b0: 7d76 aebe c2ea b4bc ee03 953b 5727 6bbe
000002c0: b933 7cbc dcb0 1bbd bc71 86be 0ed6 493d
000002d0: 4f33 ac3d 696f 49be 2cdd 85be bf43 61be
000002e0: e0f0 b93d 370f 4ebc 9f1e 643e aa08 2e3c
000002f0: 3ced 0c3d 41f6 61be a2b1 363c 1c2a 87be
00000300: d160 abbd adc6 203c b21d 04be 4de1 7c38
00000310: d48f e33b 0b53 d33d 187b 65be 7f24 553c
00000320: 8187 f13d f2a4 ce3d 33a0 be3d c612 463e
00000330: 837e b23d d7e0 d5bd a534 f3bd d0cf 18bd
00000340: 922c 613c 542b 60bd 72af 153e a6ac 943d
00000350: 335b 043e 0915 3f3e 000f 98bd 7779 2a3e
00000360: 4519 65be 42d9 25be 0fa4 163d 7434 a9bd
00000370: a130 81bd 8c19 0b3e e1d8 3dbc fdbd f7bd
00000380: fd82 243c 9830 20be d1b2 e2bc 8eeb 37be
00000390: 71a2 163e 373f e1bd 203d eebd 9ccf d83d
000003a0: 313e d6bd d755 0a3d 9453 1c3e ce63 6f3d
000003b0: a562 93bd 854c 20be 6cd4 6c3d 5c98 3dbe
000003c0: 3be7 253c b57e 03be 9cf8 ef3a 3ec1 d83d
000003d0: ca39 73bd f050 90bd 5508 06be 9f48 de3d
000003e0: 46bd 3cbb d52f 4e3e 1a52 213d 3b9d 18be
000003f0: 7bf4 44bd db70 0e3e ab81 0c3d 5369 0bbc
0.12547494 0.020161621 0.033506017 -0.05327144 -0.22075897 0.13251331 0.003458161 -0.24782093
0.1754429 0.0554345 0.051072508 0.111506164 0.2358607 -1.9035464e-05 0.13998647 0.50531065
-0.055656668 -0.0959477 0.13726106 -0.08190929 0.23476043 -0.06931999 -0.26234806 -0.09938486
-0.1500183 0.061546486 -0.35446426 0.06269773 -0.00937224 -0.14751405 -0.0007305885 0.02880839
0.038371686 0.26671165 0.071849756 -0.11032605 0.106486626 0.040404007 -0.043468617 0.38571587
0.070946656 -0.10668935 -0.011438274 0.40081534 -0.14120588 0.27727243 0.17966041 0.15571244
-0.16649519 0.13048436 -0.12891981 -0.020139571 0.083304815 0.06190667 0.004576229 -0.18353383
-0.07153349 -0.17452475 0.03361541 0.21032892 0.061171222 -0.0006570989 0.066834636 0.18997334
-0.027467243 0.011690934 -0.013049162 -0.051601537 0.043149326 0.04711634 0.044677164 0.07879486
-0.20595865 -0.117579095 0.036587924 0.36065623 0.053522967 -0.07608319 0.17654708 -0.22082119
-0.12744571 -0.16470064 -0.043063603 0.21210949 -0.06739418 -0.11483116 -0.060408324 -0.11550015
-0.09444875 -0.11404851 0.48668402 0.04764185 -0.0400591 0.0010822214 -0.107338406 -0.18459268
-0.034905363 0.016723344 0.013948356 0.08296637 0.16423716 0.12732458 0.3584319 -0.04925246
-0.06484587 -0.1734235 0.05369772 -0.29784355 -0.12748262 -0.10736281 0.15401797 -0.3045072
-0.1867787 -0.13449584 -0.21135013 0.0051305885 -0.042774044 -0.1287677 -0.13841137 -0.15305248
-0.15129228 0.0041899616 -0.07491804 -0.12547131 -0.054067537 0.16149871 -0.24816118 -0.0092480425
-0.047390364 -0.16060768 0.0869257 -0.13842632 -0.011924484 0.069287375 -0.15050477 0.0055272495
-0.09849397 0.09299725 -0.022915624 -0.14017482 -0.12871516 -0.102433406 -0.24930619 0.050512146
-0.108548425 -0.100995645 -0.39770237 -0.16537116 -0.12158647 -0.13932414 -0.21786048 0.081012234
0.03748236 -0.062081337 -0.06276142 -0.25653666 -0.023042535 0.11166304 0.06575476 -0.15406504
0.109567866 -0.2431382 0.29893392 -0.079695135 -0.16587567 0.04317415 -0.14879096 -0.0032700882
-0.26293278 0.23700543 -0.17023183 0.15960923 -0.34074774 -0.022084597 0.0045475876 -0.22964226
-0.015393191 -0.038010463 -0.26258647 0.049276404 0.08408224 -0.19671406 -0.26145303 -0.219985
0.090791464 -0.01257687 0.22277306 0.010622183 0.03440593 -0.22066595 0.011150749 -0.26399314
-0.08368076 0.009812993 -0.12901953 6.029131e-05 0.006944636 0.103185736 -0.22410238 0.01300919
0.117934234 0.100900546 0.09307899 0.19343099 0.087155364 -0.104432754 -0.118752755 -0.03730756
0.013743537 -0.05472882 0.14617708 0.072594926 0.12925415 0.18660368 -0.07424736 0.16647898
-0.22372921 -0.16196159 0.036777552 -0.08261958 -0.06308103 0.13583964 -0.0115873525 -0.12096784
0.010040996 -0.15643537 -0.027673157 -0.1796095 0.14710404 -0.109983854 -0.116327524 0.10586473
-0.10461081 0.03377327 0.15266258 0.05844479 -0.07196549 -0.1565419 0.05781977 -0.18515152
0.01012593 -0.12841304 0.0018308344 0.10583733 -0.059381284 -0.070466876 -0.13089116 0.10853695
-0.002879934 0.20135434 0.03938494 -0.14903729 -0.048084717 0.13910238 0.03430335 -0.008508998

lstm.weight_ih_l1 f4 [400, 100]
00000000: f87c 883c 6888 b83e db32 f0bd 2f11 1e3d
00000010: f6f2 6dbe 08cd 93bd 77df 803c 0435 c7bd
00000020: fac1 f7bc acec 99bd 7547 273d 82df 2e3e
00000030: f747 473d b155 ea3d d6bb 57bd 464e f1bd
00000040: deaf 6abd a6c1 0c3e 297d a9be 274c fd3d
00000050: e073 183e bdee bcbc 8419 0cbe 11bd 953e
00000060: ca3a 84be 334d 9d3e 28e5 873d 78b3 8d3e
00000070: 4d13 0d3e 7687 02be 9209 b4bd 78a2 383e
00000080: 8704 a1be b5a9 babc eaba 52bd c92e a33e
00000090: 70dc 3e3d a1ac 573d 26ca d53e 2c22 f83b
000000a0: 3899 863e 1c92 3ebe faa2 67be 23f3 89bc
000000b0: 4db8 843d 3e91 763c f68b b6bd c55a d13c
000000c0: 5cc7 7fbe 3bca c9bc 2caf 883d 91ad e73e
000000d0: 2e5e e4bd a797 90be ba21 bdbe ae33 f43d
000000e0: 023e 9abe 7644 b03e 0289 193e d498 70bd
000000f0: eac9 2bbc 5719 cc3d ce2e 31be d8ae 17be
00000100: 51e3 aabd 5a02 96bd 9456 91bd aad6 19be
00000110: b864 34be 34c8 853e b642 673e 4ff4 78bd
00000120: a323 4f3d 3270 3cbc 148f 3a3d 6b9a a43e
00000130: 90f4 b23d cee6 adbe d595 08bd 04f0 b43e
00000140: 4114 00be de1f 91bd 9be8 77be 7718 643d
00000150: 4228 c2be 9b04 78bd bd82 1f3e e5b1 743e
00000160: 519b 1a3b 9b32 013d 1952 223e d922 de3d
00000170: cb1a 98be 1fb1 94be 2f22 75be ec90 fdbd
00000180: 5308 b3be df31 c13e df33 d3bd 033f 0abd
00000190: 9a2b 963d 319e 6b3e 6996 9dbe e847 43bc
000001a0: 53a0 e7be 3089 c23d bfea 563e a2eb 843e
000001b0: 201b 413f 18b5 063f 7256 5ebe e971 50bd
000001c0: b7c6 b03e 4044 223e a3fe cdbe b36d 08bf
000001d0: 7d10 863d 050a c13e 7e84 b7be 51f4 093f
000001e0: f68c 803f 2f57 fdbd f2ba 05bf ce11 0b3e
000001f0: ce0f 9ebe 5e55 873d 3860 163e 0a2e 9d3e
00000200: c0de 5e3e 5c17 cbbe cb8b 7d3d 20c2 36be
00000210: ce13 073e 03cf 3cbf d59c d43e 2f18 613e
00000220: d8c7 fe3c 5313 8b3e ea63 cd3e bdac aa3e
00000230: 01fc 073f c46f 983e f03b ba3e ce69 e0be
00000240: ae0b 8cbe 5c95 01bf 7bf0 06bc 3391 e73e
00000250: 12f1 69be 2c68 083e f31f 1d3e c495 05be
00000260: 1c78 fbbe ad67 28bf 3fbe acbe aa91 133f
00000270: a871 a3be 6cf2 4f3e 6a53 823e 3bd2 023e
00000280: c67a 013e 592b c93e 5e0f 0cbe 597a 0f3f
00000290: 4611 df3e 16f9 ed3e 2f74 1fbf 08c5 1c3e
000002a0: 763c 073e 3f3a 87bd 49b1 c1bd dfe7 86be
000002b0: ede4 fabe fa91 893e 525f 943e cbf6 243f
000002c0: 660d ba3d d523 f83d 618b 353e 2241 a73d
000002d0: 3fc7 b3be 948c cabe 46b5 0f3c 69ba 253f
000002e0: 376c b1be 263a 393e 7a32 7fbd ecf0 a33e
000002f0: e108 b6be af0f 4c3e 583a a9bd 1847 5b3e
00000300: 0be6 d4be 5a6d 2a3b 8bbf 0ebf 3cdb 4b3e
00000310: d3b8 11be ee90 edbe a08a d7be 49c4 ee3e
00000320: 31ee babe 2420 173b a2c5 72be ec6f 62bc
00000330: f3c2 80be d0fd 683e bd28 863e f04a e2bd
00000340: 440a 43bc eb28 0bbd 1465 a7be 8f07 1d3d
00000350: 9710 46bd 3f3b 02be b3be cb3d 8d50 e6bd
00000360: 07a2 483e 05ee 453e 0f30 d93d 537b a13e
00000370: b397 843e bcea eabd 9160 a0be 01d4 69bc
00000380: bc7e d33c e58e 143e a508 29be 728c 9a3d
00000390: c52a 7d3e 3297 90bd eed1 39bd c7ee efbd
000003a0: 43d4 9ebe a079 b63b a083 85be 55a5 2fbe
000003b0: 8917 fe3d 87e5 8b3d e5d7 c63e 0abd 9d3d
000003c0: 2dda 533e aefa af3d a5e3 cabe a71e 8cbe
000003d0: a73b 70be 0d11 393e 006b 493e b678 f83b
000003e0: 6738 acbd 3b7b 0ebe 2f81 e73d 2adb e13e
000003f0: 7306 d9be 1d7a c3bd 80bb 4c3d 4bf8 c63c
0.016661152 0.3604157 -0.1172845 0.038590606 -0.23237213 -0.07216841 0.015731556 -0.09726909
-0.030243862 -0.07515845 0.04083963 0.17077449 0.048652615 0.114421256 -0.05266937 -0.117825076
-0.057296626 0.13745746 -0.33103302 0.123680405 0.14887953 -0.023063058 -0.13681608 0.2924581
-0.25826102 0.3072296 0.06635505 0.27675986 0.13776894 -0.12746987 -0.08790888 0.18030727
-0.31448767 -0.022786 -0.051447786 0.31871632 0.046596944 0.052654866 0.4175579 0.007572433
0.26288772 -0.18610424 -0.22620764 -0.01683957 0.06480465 0.015049277 -0.08913414 0.025555978
-0.24978393 -0.024632564 0.066740364 0.45249608 -0.11150776 -0.28240702 -0.36939794 0.119239196
-0.30125433 0.34427232 0.1499367 -0.0587395 -0.010485152 0.09965771 -0.17303011 -0.14812791
-0.083441384 -0.07324667 -0.070965916 -0.15023294 -0.17616546 0.26129305 0.22584042 -0.060779866
0.050571095 -0.011501359 0.045546606 0.32149062 0.08738053 -0.33965153 -0.033346016 0.35339367
-0.12507726 -0.07086156 -0.24209826 0.055687394 -0.3792134 -0.060551267 0.15577216 0.23895986
0.002359111 0.0315424 0.1585163 0.108464904 -0.2970794 -0.29041383 -0.23938821 -0.12381157
-0.34967288 0.3773336 -0.10312628 -0.0337515 0.07332535 0.23009564 -0.30778816 -0.011918999
-0.45239505 0.09498823 0.20987986 0.25961024 0.75432014 0.5262008 -0.21712664 -0.050889883
0.34526607 0.15846348 -0.40233335 -0.5329239 0.06546114 0.37702957 -0.3584327 0.5388842
1.0043018 -0.123701446 -0.5223838 0.1358101 -0.30871433 0.066080794 0.14685142 0.30699188
0.2176466 -0.3966626 0.061900895 -0.1784749 0.13191149 -0.73753375 0.41525903 0.21981882
0.031101152 0.2716318 0.4011529 0.33334914 0.531189 0.2977277 0.36373854 -0.43830723
-0.2735266 -0.5061853 -0.008236046 0.45227966 -0.22845867 0.13320988 0.15344219 -0.13045412
-0.49115074 -0.65783197 -0.33738896 0.5764414 -0.3192265 0.2030732 0.25454265 0.12775509
0.1264449 0.39290884 -0.13677737 0.5604606 0.43567866 0.464791 -0.6228666 0.15309536
0.13206658 -0.066029064 -0.094576426 -0.2634878 -0.49002782 0.26869184 0.28978974 0.64439076
0.09084587 0.121162094 0.1772895 0.0816672 -0.3511295 -0.39560378 0.008771246 0.64737564
-0.34652874 0.18088588 -0.062303998 0.32019746 -0.3555365 0.19927858 -0.08263081 0.21413839
-0.4158176 0.002600512 -0.5576102 0.1990785 -0.14230661 -0.46399635 -0.4209795 0.4663413
-0.3650985 0.0023059929 -0.23708203 -0.01382063 -0.25148734 0.22753072 0.26202956 -0.110494494
-0.011904303 -0.03397457 -0.32694304 0.038337287 -0.048355665 -0.12717913 0.09948482 -0.112458326
0.19593059 0.19329078 0.106048696 0.315394 0.25896987 -0.11470553 -0.31323674 -0.014271737
0.025817268 0.14507635 -0.16507204 0.07546319 0.24723347 -0.07060088 -0.04536622 -0.11715465
-0.31021318 0.005568698 -0.26076984 -0.17152913 0.12406833 0.06830888 0.3883659 0.07702072
0.20688696 0.08592735 -0.39626804 -0.27367136 -0.23460256 0.1807291 0.19669724 0.0075827492
-0.084091954 -0.13914196 0.11303937 0.4411252 -0.42387733 -0.09544776 0.0499835 0.024288317

lstm.weight_hh_l1 f4 [400, 100]
00000000: da91 51bc da59 aebd 5e83 153e b247 30bd
00000010: c65d f2be eccd 3bbe 3fd5 f63d 115b 91bd
00000020: 9ba6 bf3d 653d 5bbe eada 583d d5de 65bc
00000030: c689 8e3c 7592 1b3d ee98 af3d fd5d 8a3e
00000040: 21f8 06ba ff4e 86bc e45a 9bbd 3825 633d
00000050: f21c 80be ce5e 24be 98e9 c93d bffa ebbd
00000060: 91dc 80bd 2d83 30be e1ae ca3e 5242 2c3c
00000070: 5a26 f13a c003 ebbd d27b 023e 8c7d 9ebe
00000080: 3643 ffbc c206 e13a 1b66 5a3e a92e 4bbd
00000090: bf83 cfbe 915c b53e bc67 1dbf 1384 3abe
000000a0: b760 103e aded b43d e52c 69be 402c 203e
000000b0: e8be 94be affd 993e 39ee 97be bd8b e6bd
000000c0: 56c4 823e c730 633e 4fce b43d b95a 48be
000000d0: 3888 36bc 0d94 323e bfc9 473e 45fc 073e
000000e0: 86fc 583e 4c82 27be 4d8e eb3e 2b10 383d
000000f0: 1410 053b 8fad 033f 0f35 d2bd 59cb 793e
00000100: cca1 a33d 1188 21bd 567b 8d3e 002d 2dbd
00000110: 079e 47bf 5bc0 57bd 2750 743e 0ca4 50be
00000120: a460 2e3d d089 6f3e 4529 3abe c02f 643e
00000130: ce0f 8e3d 003f 163e 966d c73c 0331 943d
00000140: 6579 713e 2a76 aa3d b93f 5bbe de5b 27ba
00000150: 39c8 8cbd 9b10 253e 09d6 ca3b da96 ed3e
00000160: 187e 49be 5330 aa3e 6bde 54be f8aa 1fbc
00000170: cf42 cebd 59e5 283f a0bf c9bc 4e41 7dbc
00000180: be12 26be bf94 953c 345d 09bd a72c 28be
00000190: 4a85 283d 8000 033c a9b7 ba3e 6582 0d3f
000001a0: 1d36 003e 6700 88be 4d3d fcbd 5610 9dba
000001b0: 32ec ce3e 410e 5c3d 603d b23d b954 a7be
000001c0: 73d8 19be 542d 603e 99da 25be 1be8 22be
000001d0: 8e87 d2bd d271 b4be 55db 0e3c 0809 37be
000001e0: b357 3dbb 89a1 843d 1375 d9bd afb3 573e
000001f0: 1a0b 87bd 7e75 a1be 050d 3e3e c408 06be
00000200: 4510 b03d 8ecf 863c e53e 133d 785e 843e
00000210: efec 21be 4f40 e43d 3350 aa3e 29fd 463d
00000220: 6830 8e3c e87b 07be 43e0 303c e94c 543d
00000230: fea3 50be 389f a73e b3d6 8e3e f969 483d
00000240: 1786 0fbe 3872 7d3e 96b0 8bbd 8f4c 36bf
00000250: a15a e43e 62ab 8b3e 5a8c 9dbe 1b9c f9bd
00000260: 5222 a6bb cd60 4a3e 982e 793f a29e fc3b
00000270: 1845 6a3d 4e23 86be cae3 483e da5d b33d
00000280: e3c8 89be 9190 fe3c c422 04be 07f0 0e3e
00000290: bca7 4a3d fabc 1f3e 9a16 3f3e 2a2f 55be
000002a0: a125 443e 7ab0 d9bd 0060 fd3d 0376 bdbd
000002b0: 3c0a 1d3e f918 ef3d 4b6f efbd 3cf5 4c3b
000002c0: dbb5 1b3c 8e13 c93d ff30 f43d aa06 9f3e
000002d0: 2889 153e 0d9e 2ebe 3b60 3b3c 1913 c33d
000002e0: 4b21 183e 1bf4 a3bd ee22 093e 7a04 64be
000002f0: 1b14 e2bd 9495 88be b12c 01be 1aa6 ee3d
00000300: 591e cb3d 901e 233c e181 083e e03d 3d3e
00000310: 9e43 b4bd cb36 67bc db9b 04be 1f8c 42be
00000320: 0f8c 8d3e 8e0f dabe 8185 c93c 6e9e 043d
00000330: e5d3 3cbc 3ccb 3abe cc63 05be b433 f8bd
00000340: 4ca8 a738 7807 c23c e2d2 93be d5d6 94be
00000350: ea2e 643e bb6d 37bc cdb3 e53d a8ad 2dbe
00000360: ed6c 5fbe 556f 843e 5e61 183c 7b18 4bbe
00000370: c4f0 b73c dc45 c4be 9218 f2bd e447 9ebe
00000380: 9ce3 8cbc 5635 ccbe 932c d53c 59f2 a1be
00000390: 4121 bb3b 293d f83d 6bf8 403e bb6e 55bd
000003a0: fb6f a83d e101 21be 2fe0 0a3d c986 c4bd
000003b0: 7f2b 843e ecef c63d 345a 833c 65d4 183e
000003c0: 1982 ae3e db2d 823d 6ad0 183c 78ba 5fbe
000003d0: e1c5 85bc 3368 6ebe dc83 14be 06b7 8abe
000003e0: cc4e 403e 20c6 1fbd 5ce9 d7bb 45a0 38bd
000003f0: e7d3 60bd 9072 7a3b 9d6b a43d b4dc 2fbe
-0.012791121 -0.085132316 0.14600894 -0.043037124 -0.47337168 -0.18340272 0.12052392 -0.07097448
0.09357949 -0.21410139 0.052943148 -0.014030178 0.01739968 0.03798147 0.08574091 0.27024832
-0.00051486684 -0.01639509 -0.075856954 0.055455416 -0.25022084 -0.1605179 0.098590076 -0.115224354
-0.0629207 -0.1723754 0.39586547 0.010513859 0.001839827 -0.11475325 0.12742546 -0.3095516
-0.031159978 0.0017168152 0.21328013 -0.049605045 -0.40530202 0.35422185 -0.6148641 -0.18214445
0.14099394 0.088343956 -0.22771032 0.1564188 -0.290519 0.30076358 -0.29673937 -0.11257122
0.25540417 0.22186576 0.08828413 -0.19565858 -0.0111408755 0.1743929 0.19510554 0.13279827
0.2119008 -0.16358298 0.46007004 0.044937294 0.0020303773 0.51436704 -0.102640264 0.24393977
0.07989845 -0.039436404 0.2763316 -0.042279243 -0.77975506 -0.05267368 0.238587 -0.20375079
0.042572632 0.23392415 -0.18179806 0.2228384 0.06936608 0.1467247 0.024344247 0.07235911
0.23581465 0.08323319 -0.21411027 -0.0006384234 -0.06874127 0.16119616 0.0061900658 0.46404153
-0.19677007 0.33239993 -0.2078797 -0.009745352 -0.100713365 0.65974957 -0.024627507 -0.015457464
-0.16218087 0.018259404 -0.03353615 -0.16423284 0.04114274 0.007995725 0.36468247 0.5527709
0.12520643 -0.26562807 -0.1231638 -0.0011983018 0.40414578 0.05372453 0.087031126 -0.32681826
-0.15023975 0.21892291 -0.1619667 -0.15908854 -0.10279761 -0.35243088 0.008719285 -0.17874539
-0.0028891384 0.06476123 -0.10618033 0.21064638 -0.06593914 -0.31534952 0.18559654 -0.13089281
0.08596853 0.016456392 0.035948653 0.25853324 -0.15813039 0.111450784 0.33264312 0.048581276
0.017357066 -0.1323086 0.010795656 0.05183116 -0.20375058 0.32738662 0.27898178 0.04892919
-0.14015995 0.24750602 -0.068207905 -0.7121057 0.44600394 0.27279192 -0.30771142 -0.12187978
-0.0050700093 0.19763489 0.9733672 0.00770934 0.0571948 -0.2619881 0.19618145 0.08758135
-0.26911077 0.031074794 -0.12903887 0.1395875 0.04947637 0.15599433 0.18660966 -0.20818773
0.1915498 -0.10629363 0.12371826 -0.092510246 0.15335935 0.11674685 -0.11691149 0.00312741
0.009503807 0.09818183 0.11923408 0.31059772 0.14603102 -0.17052479 0.011436517 0.09525127
0.1485645 -0.08005544 0.13392231 -0.22267333 -0.11038991 -0.2667662 -0.12614705 0.11652775
0.09917898 0.009956017 0.13330795 0.18480635 -0.088019595 -0.014112185 -0.12950079 -0.18998764
0.2764592 -0.42589992 0.024599792 0.032377653 -0.011525129 -0.1824159 -0.1302635 -0.121192366
7.994528e-05 0.023685202 -0.28871828 -0.29070154 0.22283521 -0.011195595 0.11215935 -0.16960776
-0.21818896 0.2586619 0.009300558 -0.19833557 0.022453673 -0.38334548 -0.11821093 -0.30914223
-0.017198376 -0.39884442 0.026022231 -0.3163021 0.0057107513 0.121210404 0.18844764 -0.052107554
0.082244836 -0.15723373 0.033905204 -0.09596021 0.25814435 0.0971373 0.016034223 0.14924772
0.34083632 0.063564025 0.009327034 -0.21848476 -0.016329708 -0.23281936 -0.14503425 -0.2709276
0.18780059 -0.039007306 -0.006589098 -0.04507472 -0.054889586 0.0038215257 0.08028338 -0.17174035

lstm.bias_ih_l1 f4 [400]
00000000: c1ab c9be b483 27bd 7fb6 e53c 8043 0d3e
00000010: 9861 a53e c668 8bbd 2eb2 70bd 17f9 97be
00000020: 466b edbd 3da2 f3be 1f89 453d 68c3 173c
00000030: baf7 a1bd ff2b 64be 5bcd 1b3d 982f 5e3e
00000040: 83f7 06bf 08e0 003e 0d3e 8fbe b478 5dbe
00000050: a3e3 d83d fde7 3a3c a22b a6be a298 f9bd
00000060: 2ed6 85be f424 f0bd a181 c9bd 4271 ef3d
00000070: 596d d9be d690 8bbe 3874 a7be 4377 efbd
00000080: 20d8 d7be 916d b9bd 8a85 7dbe a7e4 0abe
00000090: ffb7 39be b480 693e 2352 cebe b665 08be
000000a0: 572c 45bc 989f 69be a489 143e 397e da3c
000000b0: 479a 07be f333 bfbe a8f8 9bbe 3e4c 8dbd
000000c0: 701e 1cbc a753 03be cc12 883d 7592 b1be
000000d0: 17c0 2abd f508 6fbe 6953 113c 93c3 35be
000000e0: c56d dbbe 7f9d 97be 7d9e a2be 17c3 00be
000000f0: 1108 88be ab4d 59bd a77e 9dbd 5e80 85be
00000100: f849 593d 6667 06be 3ec6 93be 163d e13d
00000110: 4c87 39be 44d8 33be 8f88 bdbe 0b8a f8be
00000120: 0422 cbbe 2681 23be cb74 70be 6959 193e
00000130: dffc 6bbd 051a 6fbd 8593 a6be b75b b0bd
00000140: 4f53 4cbe 3aa1 edbe e1fa 46be 39b4 b3be
00000150: c95b 17be e344 56be 46c6 dabd b530 1fbe
00000160: bfdb c8be e90d 9bbd 336d 10bf 7c52 efbd
00000170: 6e0e b1be 805b 103d 69b3 78be 460c 86be
00000180: aa00 69be 96d6 34bd f069 13be 5cc0 f7be
00000190: a71c 92be 969b 18be 2418 f53b dc15 8bbe
000001a0: b144 14be a56f cabd 99f3 70be d133 83be
000001b0: 58c3 c2be dc7d 65be 21f2 0b3d 3917 01bc
000001c0: aa12 a13d f659 cfbc 0e00 553c da3c c93d
000001d0: d3fd 843d 675e 6bbe b594 95be 3664 56be
000001e0: b70e 78bd 41de c93d cfa0 8ebe ce89 eebd
000001f0: 9227 6a3c c51b 8d3d 6980 bfbe 53bd 88bc
00000200: 8d7a d9be b6c0 64be 33cc b3be a01e 3ebe
00000210: 98ea 91be 75d0 7ebe 430a 7bbe 148f 92be
00000220: 20ae b53d dd55 05be 9544 01be dc8d ccbc
00000230: 48a1 acbe e26c bfbd 6f5d 6ebe fb24 b13e
00000240: a768 ccbc 5ddd dbbd be12 a2be 8c00 40bd
00000250: a8d3 a43e 28b1 3cbe 06df 55be 6c08 8fbe
00000260: 9c4f 60be 7587 1ebe b253 22be 52be 92be
00000270: 4889 d6be b74f 5abe 1afa a2be 9015 f9be
00000280: ac44 4ebe c365 b43c d7d8 b6bd a572 80be
00000290: 0ca7 abbe e008 86be 65f9 14bf 1672 36bd
000002a0: 6765 c4bd 86bb 453c cf1a b9bd 792a debe
000002b0: 732a 32be ff3e 9fbe f2a3 9dbe 18a6 85be
000002c0: fcf0 94be 7d70 6f3d 21f2 78be 1d14 ea3b
000002d0: e28c 59be 36a1 9fbe 8cf6 5fbe 55e2 e8be
000002e0: 0551 39be a049 42be 0d25 8cbe f4be 9cbd
000002f0: 6937 3bbe bed5 5fbd 1818 6fbe af69 86bb
00000300: 507a e5bd 3662 163d 8924 61bd 5ff2 213e
00000310: 722f c2be 92e6 b33d 14eb c03d d42b d9be
00000320: cc7b c23c 12d1 99bc 9162 1bbd 0c59 b0bd
00000330: 29fc b9bc 8a72 a7bc 7392 b43c 59da e1bc
00000340: 1f2e 88bd 165a bebd e8bc 26bc fa81 3cbc
00000350: 77b8 803d 4558 33bd 9196 283d eb95 cbbd
00000360: e1e4 6ebd 391c b13c ca46 40bd d980 4a3d
00000370: 8f87 08be 804d abbd 752d a0bd a23d b6bd
00000380: b77e a3bb 5c2c 9b3d b068 a63d ea2d c5bc
00000390: c79c 2ebd b92a 1b3e b240 e7bc 2e84 8dba
000003a0: e880 0dbc 68fb 8bbd 9851 21bd b25d cdbd
000003b0: 4ecf 3d3d 71a8 843d 135f 353d 3d81 5f3c
000003c0: fbbd 1d3d 7c52 c8bd 77a3 a1bd d6f8 cdbd
000003d0: c985 ddbc 3ce4 6dbd 752c 6e3b 9af3 383d
000003e0: ad4c 45bd 3772 07be 4f03 be3d abac 843d
000003f0: 4b47 9ebd 0a8f cebc ac57 b8bd fa42 473b
-0.3938885 -0.040897086 0.028041122 0.1379528 0.3230102 -0.06807093 -0.058763675 -0.29682228
-0.115927264 -0.47584715 0.048226472 0.009262897 -0.07908578 -0.22282408 0.03803764 0.21697843
-0.5272142 0.12585461 -0.27977028 -0.21628076 0.10590293 0.011407849 -0.32455164 -0.121873155
-0.2613997 -0.11725798 -0.09839178 0.11691524 -0.42466238 -0.2725894 -0.32705855 -0.11692669
-0.42157078 -0.09054101 -0.24757972 -0.13563786 -0.18136595 0.22803003 -0.4029704 -0.1332005
-0.012034497 -0.22814786 0.1450563 0.026671516 -0.13242446 -0.37344322 -0.30463147 -0.06899308
-0.009528741 -0.1282488 0.0664421 -0.3468205 -0.041687097 -0.2334326 0.008869984 -0.17750387
-0.42857185 -0.29612347 -0.31761542 -0.12574421 -0.26568654 -0.053052586 -0.07690173 -0.260745
0.053049058 -0.13125381 -0.28862184 0.10997979 -0.18118018 -0.17562968 -0.37018248 -0.48542818
-0.3967439 -0.15967235 -0.23482053 0.14975514 -0.057614204 -0.058374424 -0.32534423 -0.08611243
-0.19953655 -0.4641207 -0.1943164 -0.35098436 -0.14781107 -0.20924716 -0.10682349 -0.15545924
-0.39230153 -0.075710125 -0.56416625 -0.116856545 -0.3458132 0.03524351 -0.2428719 -0.2618124
-0.2275416 -0.044149958 -0.1439588 -0.48388946 -0.28537485 -0.14903101 0.0074796844 -0.27165115
-0.14479329 -0.09884576 -0.23530425 -0.2562547 -0.3803966 -0.22411293 0.03416646 -0.007879072
0.07864888 -0.025311451 0.013000501 0.0982606 0.06493726 -0.2298523 -0.29215017 -0.20936665
-0.06056091 0.09856845 -0.27857062 -0.11647378 0.014291661 0.06890062 -0.37402657 -0.01669184
-0.4247631 -0.22339138 -0.3511673 -0.1856637 -0.28499293 -0.24884208 -0.24515633 -0.28624785
0.08871102 -0.13021035 -0.12623818 -0.024969988 -0.33716798 -0.093469396 -0.2327783 0.34598526
-0.024952246 -0.10735581 -0.31654924 -0.04687552 0.3219273 -0.18426955 -0.20885858 -0.27936113
-0.21905369 -0.1548136 -0.1585224 -0.28660828 -0.41901612 -0.21319471 -0.31831437 -0.48649263
-0.20143384 0.02202118 -0.08928078 -0.25087467 -0.33525884 -0.26178646 -0.58193046 -0.044542395
-0.095896535 0.012068635 -0.090383165 -0.4339178 -0.17399006 -0.3110275 -0.30789143 -0.26103282
-0.29090106 0.058456887 -0.24311115 0.007143511 -0.21245149 -0.31177682 -0.21871394 -0.45485178
-0.18097313 -0.18973398 -0.27372018 -0.07653609 -0.18282856 -0.0546472 -0.23349035 -0.004101954
-0.1120497 0.036714755 -0.054966483 0.15815113 -0.37926823 0.08784212 0.094198376 -0.4241625
0.023740672 -0.01877645 -0.037935797 -0.08610734 -0.022703247 -0.020440359 0.022042489 -0.027569937
-0.06649422 -0.09294526 -0.010176875 -0.011505598 0.06285184 -0.043785352 0.041159216 -0.09940704
-0.058323745 0.021619903 -0.04694251 0.049439285 -0.13332961 -0.08364391 -0.0782117 -0.08898474
-0.004989471 0.0757682 0.08125436 -0.024069745 -0.042629983 0.15153016 -0.028229091 -0.0010796839
-0.008636691 -0.06835061 -0.039384454 -0.100276366 0.04634028 0.0647744 0.044280123 0.013641653
0.038511258 -0.09781358 -0.078925066 -0.10057227 -0.027041333 -0.05807899 0.0036342416 0.04515419
-0.048168827 -0.13227163 0.09277975 0.06478246 -0.07728442 -0.02521469 -0.09001097 0.0030404911

lstm.bias_hh_l1 f4 [400]
00000000: 9a9d a5be 9932 9fbd 9945 3dbd 9f9a 3b3e
00000010: f8b0 7b3e e956 23be 06e8 e0bc 10cd babe
00000020: 95e9 13be d7d9 ebbe 141f aebd 9c85 a0bd
00000030: bb32 e6bd b11e 37be 9fc2 44bd 0e28 5f3e
00000040: 618c edbe 2cfe 55bd a649 dabe 82de a3be
00000050: 8cb7 463e a1d3 eb3d ae90 94be 69fd 2cbe
00000060: b3cb c0be 06c3 f3bd 7294 52bd 10e3 f43d
00000070: a6ff afbe 3355 9abe 99da 9dbe df0f 48be
00000080: 8f14 b8be b124 3ebe b176 bebe a6f5 52be
00000090: 4060 67be 9366 303e b56a d4be cc38 7fbe
000000a0: a9cd 1cbe 3e77 51be 30f4 7a3e 8b6b 1ebc
000000b0: 34b6 7b3c 9c29 8ebe 66fc 0bbe 588b 3bbe
000000c0: 7a7c a13c aebb 15be be95 80bd 609a 9cbe
000000d0: 4041 2dbe edd1 f2bd 760a a7bd d12b 64be
000000e0: 4d00 11bf 0095 19be b6dd 8dbe e348 d3bd
000000f0: 41cf 61be 278c 4bbe 143e 1cbc b32d c9bd
00000100: 1ef5 b4bd 15fc 813c 7634 29be 2eac 953d
00000110: 9e82 82be 32af 5dbe ca40 e2be a332 01bf
00000120: 732d 91be a3fa 42be 3d80 b4be 7192 5e3e
00000130: d828 0fbe 474a dabd fcb0 adbe 8937 83be
00000140: bec3 9bbe 5ae7 dabe 3230 29be f773 b6be
00000150: 948a 29be 24e7 21be 9067 c1bd de74 0cbb
00000160: 74fb ddbe d628 62bd edb6 11bf af4e 6fbd
00000170: 32de c9be b6c1 91bc 0581 9abe 967b cabe
00000180: 0412 8fbe 0482 40be b811 2cbe 719a a2be
00000190: e863 98be 4657 90be 37df 423c 3fff 90be
000001a0: aa7e 62bd 164b f8bd 420b 6dbe 2416 0ebe
000001b0: 365a c3be 69c6 92be ffa8 0a3c 58f0 3bbe
000001c0: aba7 713d 9739 46bd 347e 30bc 456c c23d
000001d0: 3b18 bf3d 9b94 1fbe 17b4 8dbe ed5d 71be
000001e0: 2d16 f2bd b426 84bd 9b1e 12be a27c 48be
000001f0: 2ec1 3abd c882 093e 35cd 6bbe 50f7 1a3c
00000200: 4ddf d9be 52dd 91be 36ee b0be 3442 95be
00000210: 71ce a9be 820b 92be 37a1 85be f20b 86be
00000220: 7518 153d 008e 5ebd 1510 13be 3238 02be
00000230: abae 80be fe30 33be 8e67 8fbd 3abc 703e
00000240: 6c0d 47be 3897 19be 2d3c cbbe 1b52 2dbe
00000250: 6611 a13e d307 0dbe ee97 7dbe f8d1 65be
00000260: 32d6 13be b677 18be 5942 f7bd bff0 37be
00000270: 635e a6be c677 b4be c24a 47be 6dfb f5be
00000280: 9332 65be d917 febd 2e62 36be 61a9 4abe
00000290: 886b 72be 457c 93be 5645 d7be d700 aabc
000002a0: 8abf c3bd 1b1d 553b 7ad7 af3c 2667 92be
000002b0: dd16 82be c643 8dbe 75f5 25be 9d4f 5abe
000002c0: b9cc 98be 923e 163e 9027 cbbe 3255 01be
000002d0: 4d4a 4abe ede6 89be 553e 9abe 1127 cbbe
000002e0: e733 b7bd a044 8fbe 60b9 81be 6d5b 023d
000002f0: 21d3 5ebe b2bf 283d c61f 5ebe 06f3 9b3c
00000300: 61e9 3dbe 7e68 ea3d 12e6 8bbd 89ce 853d
00000310: 4958 8abe cdc9 5d3b d8d2 1e3d 387b d7be
00000320: ea81 12bd fb0c dbbd c55b 08be 1afe f0bd
00000330: f28f 463c f623 99bd ff69 1b3d d952 013d
00000340: 6d82 11be af7e 963b fde2 fdbd fa46 063d
00000350: 2c80 1e3d ae95 debd 2382 813d 71ed 55bd
00000360: 2a62 21bb 2095 a63d b406 79bd 21b0 263d
00000370: 76f6 273d e1c7 f4bd 0925 303d 7260 a2bd
00000380: 16c3 383d 438d a6bc 9d40 b839 e895 1e3e
00000390: 203f c23d 9413 e53d 1a9a eb3d 4de4 973c
000003a0: d8c3 623d 92db 26bd 2102 8abd 03aa a33d
000003b0: b7f0 2abd 3715 813d 8e5f a8bd 49b1 1d3d
000003c0: 5ed4 763d 40a5 2c3d bd9a fd3c 6e6d 3f3d
000003d0: cafd dcbd 0066 c03d 04fa 0bbd 6fdf 483d
000003e0: b2b9 c5bd a522 97bd 0d44 153d 6703 d1bc
000003f0: fa12 14bd f434 933c 3f60 463d 4449 a63d
-0.32346803 -0.077733226 -0.04620895 0.18320702 0.24579227 -0.15951122 -0.027454387 -0.36484575
-0.14444573 -0.46064636 -0.085020214 -0.07837984 -0.11240145 -0.17882802 -0.048037168 0.21792623
-0.46396163 -0.05224435 -0.42634314 -0.32005697 0.19405955 0.115149744 -0.29016632 -0.16893543
-0.3765541 -0.11902432 -0.0514111 0.11957371 -0.34374732 -0.30143127 -0.3083084 -0.19537304
-0.35953185 -0.18568684 -0.3719993 -0.2060152 -0.2259531 0.17226629 -0.4148766 -0.2492401
-0.15312828 -0.20455644 0.24507213 -0.009669195 0.015363265 -0.2776612 -0.13670501 -0.18314874
0.019712675 -0.14622375 -0.06278561 -0.3058653 -0.16919422 -0.118564464 -0.08156292 -0.2228234
-0.56641084 -0.14998245 -0.27708215 -0.103166364 -0.22051717 -0.19877683 -0.009536285 -0.098231696
-0.08835815 0.015867272 -0.16523919 0.07308231 -0.25490278 -0.21648863 -0.44190055 -0.5046789
-0.28354988 -0.19040923 -0.35254088 0.2173555 -0.13980424 -0.106586985 -0.3392409 -0.25628307
-0.30422777 -0.42754632 -0.16522291 -0.3563535 -0.1655677 -0.1581083 -0.09443581 -0.0021431963
-0.43355906 -0.055214725 -0.5691975 -0.058424648 -0.39427334 -0.017792564 -0.3017656 -0.39547414
-0.27943432 -0.18799597 -0.16803634 -0.31758454 -0.29763722 -0.28191584 0.011894039 -0.28319737
-0.055296578 -0.121236965 -0.23148826 -0.13875633 -0.38154763 -0.28667 0.008463143 -0.18353403
0.05899779 -0.048394766 -0.010772277 0.09493307 0.093307935 -0.15584032 -0.2767646 -0.23570986
-0.11820636 -0.064526945 -0.14269488 -0.19578794 -0.045594387 0.13428795 -0.23027499 0.009458378
-0.42553177 -0.28489166 -0.3455674 -0.2915207 -0.33165315 -0.28524405 -0.2609956 -0.2618099
0.036400277 -0.05433464 -0.14361604 -0.1271675 -0.2513326 -0.17499158 -0.07002173 0.23509303
-0.19438714 -0.14999092 -0.39694348 -0.16925852 0.31458586 -0.13772516 -0.24764988 -0.22443378
-0.14437178 -0.14889416 -0.12073202 -0.17962931 -0.32493886 -0.3524763 -0.19462112 -0.48043385
-0.22382574 -0.12406892 -0.1781089 -0.19791175 -0.23673832 -0.28805748 -0.42045087 -0.020752354
-0.095580176 0.003251857 0.021465052 -0.2859432 -0.25408068 -0.2759077 -0.16206916 -0.21319433
-0.2984369 0.14672306 -0.3967862 -0.12630156 -0.19754906 -0.26933995 -0.3012568 -0.39678243
-0.089454465 -0.27982044 -0.25336742 0.03182547 -0.21760227 0.04119844 -0.21691808 0.019036781
-0.18546058 0.114457116 -0.06830992 0.06533534 -0.2702048 0.0033842206 0.038775295 -0.42086196
-0.035768427 -0.10695835 -0.13316257 -0.11767216 0.01211928 -0.07477562 0.037942883 0.03157315
-0.1420991 0.0045927386 -0.1239681 0.032782532 0.038696453 -0.10868393 0.0632365 -0.052228395
-0.002462516 0.08133912 -0.06079741 0.040695313 0.041006528 -0.119521864 0.04300407 -0.07928552
0.045107923 -0.02033103 0.00035143355 0.15486872 0.094846964 0.11185375 0.11504002 0.01854148
0.055362552 -0.040736742 -0.06738687 0.079914115 -0.04173347 0.063028745 -0.082213506 0.03849915
0.060261123 0.042149782 0.030957574 0.04673522 -0.10790594 0.09394455 -0.03417398 0.049041208
-0.09654559 -0.07379655 0.03644185 -0.025514318 -0.03615091 0.017969586 0.04843163 0.08119443
